saved_model/FashionMnist.pt (torch, 350802 bytes, 18 tensors)

layer1.0.weight f4 [16, 1, 5, 5]
0.13107109 -0.121737905 -0.07137236 -0.02540086 -0.079602994 -0.22768179 0.02042074 0.009857188
0.03970701 0.06109408 -0.19508101 0.17572585 0.13349417 0.050648455 0.06779127 -0.095386215
-0.07753669 0.03601168 0.28832215 0.17024069 -0.10296238 0.110883944 0.04955878 -0.009854055
0.14572999 0.10838267 0.079777546 0.1526606 0.11641505 -0.018417664 0.11045103 0.14670557
0.009149041 -0.12756738 -0.14044622 -0.11016076 -0.081157975 -0.057919595 -0.20729971 -0.15558381
-0.17443347 -0.084842 0.0015679292 0.076504916 0.1252753 0.10779241 -0.002796221 -0.18370648
0.17499994 0.19736268 -0.01707813 -0.07365871 0.002813192 -0.17816187 0.039602228 -0.11001832
-0.19022773 -0.2117645 -0.08307285 0.22383282 0.05436299 -0.15676056 -0.08083609 0.26290625
-0.15001626 -0.12633817 0.021211978 0.20421965 0.07748633 -0.049159404 0.09172193 0.004903673
0.0009003556 -0.029151602 0.08106093 -0.02631841 0.108395405 0.20956023 0.10183046 -0.024942834
0.001787063 -0.084975265 0.28567111 -0.12091673 -0.039621662 -0.0913965 0.12186072 0.08500696
-0.043917343 0.006713055 0.09351261 0.1968848 -0.10514126 -0.20045282 0.07623115 0.13548382
-0.22461978 -0.17552215 0.06929472 0.05897543 0.11723485 -0.032655455 0.12149242 -0.16801989
-0.084888004 0.18881476 -0.18748738 0.09724847 -0.04003271 0.1124509 0.123358235 -0.043470137
-0.019198596 -0.15155005 -0.048765473 0.1660841 -0.039539725 -0.07653515 0.0009841543 -0.08111192
0.09306214 0.08996047 -0.09459602 -0.2329893 0.14342377 -0.01841016 -0.00079566037 -0.16812447
0.043716896 -0.13371311 0.20042717 -0.045511417 -0.13574457 -0.22774656 -0.21718723 0.04846131
0.058779996 0.13483074 -0.12974961 -0.13708463 0.037300527 0.10221251 0.0040337113 -0.05285585
0.055756446 0.099384286 0.023613324 0.11484287 0.10516878 0.13929677 -0.2057071 0.18593553
0.15043536 -0.047761593 -0.13606885 -0.1405039 -0.030578481 0.12473371 0.0063648666 -0.048979226
0.013901975 0.14705206 0.15865873 -0.18486136 0.041933987 -0.01476872 -0.071707115 0.09697083
-0.12960462 0.019845571 -0.07811185 -0.1110604 0.17012198 -0.0054781646 0.038185295 -0.14770338
0.20800233 0.15123032 0.11618604 -0.21607646 -0.05670383 0.24833474 -0.012091023 -0.031088648
0.1702425 0.08045524 0.07031548 -0.02937861 -0.022685757 -0.24678811 0.015152759 -0.22539467
-0.06716666 -0.120974146 0.17659724 0.1569291 0.04643551 0.0021030782 0.14753947 0.011401046
0.12010639 0.19422932 -0.25360757 0.109265245 -0.010438701 0.19215105 -0.18849888 0.1053448
-0.11238447 -0.09649227 0.12913114 -0.10366765 -0.035713434 -0.0751702 -0.05339181 -0.12139369
-0.19822587 0.1313336 0.063354164 0.06541313 -0.20107569 -0.089001626 0.10532872 -0.11924102
0.09322987 -0.012616455 0.19836201 -0.17064619 -0.10300262 0.14639628 0.028281633 -0.010128913
0.10982231 -0.25575042 0.1595752 0.028766368 0.07686029 -0.11830254 -0.16523519 0.20866883
0.14803153 -0.050207764 -0.09767265 -0.09091688 0.0751273 -0.14389905 0.053436227 -0.054033875
0.07230246 0.013983894 -0.019914031 -0.23956579 0.002368513 -0.08490446 -0.175312 0.08848854
00000000: 8037 063e b951 f9bd ac2b 92bd 7715 d0bc
00000010: e506 a3bd 6a25 69be 6549 a73c 0b80 213c
00000020: d1a3 223d c93d 7a3d 51c3 47be 7af1 333e
00000030: b2b2 083e c174 4f3d 26d6 8a3d d959 c3bd
00000040: 8ecb 9ebd fc80 133d f69e 933e 9353 2e3e
00000050: f1dd d2bd 1f17 e33d 26fe 4a3d e772 21bc
00000060: 3e3a 153e bcf7 dd3d 6962 a33d 0f53 1c3e
00000070: 046b ee3d a4e0 96bc 2634 e23d fc39 163e
00000080: dce5 153c 06a1 02be 22d1 0fbe f79b e1bd
00000090: 2736 a6bd 193d 6dbd 6046 54be 5d51 1fbe
000000a0: b09e 32be a4c1 adbd f982 cd3a 9cae 9c3d
000000b0: 2b48 003e 44c2 dc3d ce40 37bb 8d1d 3cbe
000000c0: 2f33 333e 7119 4a3e 6fe7 8bbc 61da 96bd
000000d0: 885d 383b 1170 36be f235 223d 4951 e1bd
000000e0: 0fcb 42be cbd8 58be 1922 aabd 6e34 653e
000000f0: baab 5e3d d785 20be 648d a5bd a69b 863e
00000100: dd9d 19be cb5e 01be bec4 ad3c f51e 513e
00000110: 27b1 9e3d 5f5b 49bd b5d8 bb3d feae a03b
00000120: d705 6c3a 57cf eebc 4603 a63d b599 d7bc
00000130: 69fe dd3d f596 563e 7d8c d03d ea54 ccbc
00000140: e23b ea3a 8307 aebd 7c43 923e 31a3 f7bd
00000150: 534a 22bd 172e bbbd 1d92 f93d 2118 ae3d
00000160: ace2 33bd 30f9 db3b 8a83 bf3d 2b9c 493e
00000170: 4d54 d7bd 8143 4dbe 141f 9c3d 45bc 0a3e
00000180: ba02 66be 14bc 33be 64ea 8d3d 3890 713d
00000190: d318 f03d bac1 05bd 05d1 f83d 680d 2cbe
000001a0: c3d9 adbd a858 413e b1fc 3fbe 352a c73d
000001b0: 57f9 23bd a84c e63d 3ea3 fc3d be0d 32bd
000001c0: 6046 9dbc f02f 1bbe 4ebe 47bd f311 2a3e
000001d0: 68f4 21bd 76be 9cbd bdfe 803a 021e a6bd
000001e0: 5d97 be3d 323d b83d 8fbb c1bd bf94 6ebe
000001f0: aedd 123e e7d0 96bc dd93 50ba d228 2cbe
00000200: 7d10 333d 17ec 08be c83c 4d3e 2e6a 3abd
00000210: a000 0bbe 6536 69be 5466 5ebe 5e7f 463d
00000220: 4bc3 703d 1211 0a3e 15dd 04be ea5f 0cbe
00000230: 70c8 183d cb54 d13d 392d 843b 607f 58bd
00000240: df60 643d fd89 cb3d bb70 c13c bd32 eb3d
00000250: bb62 d73d d0a3 0e3e e2a4 52be e265 3e3e
00000260: ba0b 1a3e a9a1 43bd a255 0bbe 41e0 0fbe
00000270: b97f fabc 6374 ff3d 5f90 d03b 719e 48bd
00000280: 1cc5 633c d194 163e 6f77 223e 4c4c 3dbe
00000290: f9c2 2b3d 80f8 71bc 2edb 92bd a498 c63d
000002a0: 13b7 04be 2e93 a23c 1bf9 9fbd a373 e3bd
000002b0: 7534 2e3e 2d82 b3bb 2f68 1c3d 8e3f 17be
000002c0: 90fe 543e 1fdc 1a3e f2f2 ed3d 2643 5dbe
000002d0: 4642 68bd 764b 7e3e 6d19 46bc 9fad febc
000002e0: 0d54 2e3e b8c5 a43d 9001 903d 69ab f0bc
000002f0: 7bd7 b9bc 06b6 7cbe 4743 783c dccd 66be
00000300: ad8e 89bd 4bc1 f7bd e8d5 343e 06b2 203e
00000310: 2933 3e3d ccd3 093b 9614 173e 74cb 3a3c
00000320: 57fa f53d 0de4 463e dad8 81be 75c6 df3d
00000330: 1607 2bbc 3fc3 443e da05 41be 04bf d73d
00000340: d429 e6bd bd9d c5bd f43a 043e b44f d4bd
00000350: 4048 12bd d5f2 99bd 5fb1 5abd 419d f8bd
00000360: b9fb 4abe 517c 063e d4bf 813d 52f7 853d
00000370: c9e6 4dbe 7c46 b6bd 95b6 d73d a334 f4bd
00000380: 4def be3d 3fb5 4ebc 691f 4b3e e0bd 2ebe
00000390: 0af3 d2bd e8e8 153e e2ae e73c bef3 25bc
000003a0: 85ea e03d b8f1 82be ae67 233e 72a7 eb3c
000003b0: ed68 9d3d 9a48 f2bd 6a33 29be 48ad 553e
000003c0: 9495 173e a8a6 4dbd 9908 c8bd a132 babd
000003d0: 58dc 993d 465a 13be f2df 5a3d a052 5dbd
000003e0: 5013 943d b41c 653c c022 a3bc bc50 75be
000003f0: 0e39 1b3b 64e2 adbd fd84 33be 7b39 b53d

layer1.0.bias f4 [16]
0.16471036 -0.14291708 0.06208648 -0.09800524 -0.19998898 -0.024566576 -0.17951058 0.004675318
0.12556751 -0.20185746 -0.075537816 -0.15622245 0.052862633 -0.115721256 -0.14710961 0.12616254
00000000: d5a9 283e db58 12be 654e 7e3d f9b6 c8bd
00000010: e9c9 4cbe d83f c9bc 9fd1 37be 6933 993b
00000020: c594 003e b9b3 4ebe 92b3 9abd c7f8 1fbe
00000030: 7d86 583d 44ff ecbd e7a3 16be c130 013e

layer1.1.weight f4 [16]
0.76389945 1.0000933 1.0689383 0.6933577 1.0031176 0.9903831 0.92600536 0.69980925
1.0278621 0.98639315 1.0649171 1.0711359 1.0079209 1.0587218 1.1383532 1.0545453
00000000: ea8e 433f 0f03 803f f8d2 883f e47f 313f
00000010: 2866 803f bf89 7d3f b00e 6d3f b326 333f
00000020: fc90 833f 4384 7c3f 344f 883f fb1a 893f
00000030: 8d03 813f 3284 873f 8fb5 913f 57fb 863f

layer1.1.bias f4 [16]
-0.23233096 -0.15033828 -0.33039784 -0.20220377 0.15785912 -0.13075276 0.0860122 -0.27842808
-0.10520561 -0.07210472 -0.16666484 -0.4021203 -0.045563485 -0.011695739 -0.32505512 -0.23542587
00000000: 2be8 6dbe 47f2 19be e829 a9be 810e 4fbe
00000010: d2a5 213e 0de4 05be 2a27 b03d 208e 8ebe
00000020: 0a76 d7bd a4ab 93bd 30aa 2abe b6e2 cdbe
00000030: c7a0 3abd 7c9f 3fbc a06d a6be 7b13 71be

layer1.1.running_mean f4 [16]
0.3245044 -0.13242549 -0.060508322 0.028542085 -0.2150483 -0.05771806 -0.17685841 0.12780327
0.022409959 -0.18053123 -0.20628117 -0.6996807 0.06078195 -0.08276923 -0.52604115 -0.050167974
00000000: 7125 a63e 8c9a 07be 93d7 77bd 17d1 e93c
00000010: 9f35 5cbe c669 6cbd 5f1a 35be dcde 023e
00000020: 1795 b73c 2edd 38be 5f3b 53be 461e 33bf
00000030: 7ef6 783d ea82 a9bd a2aa 06bf ef7c 4dbd

layer1.1.running_var f4 [16]
0.064035416 0.014818244 0.03606979 0.027842991 0.029966984 0.045775067 0.015371999 0.024357537
0.020186339 0.015815552 0.034154553 0.32796472 0.0067777787 0.01717647 0.17463446 0.05347998
00000000: 0025 833d 38c8 723c ebbd 133d fc16 e43c
00000010: 527d f53c a37e 3b3d d6da 7b3c 7589 c73c
00000020: d25d a53c 9e8f 813c a5e5 0b3d feea a73e
00000030: 2118 de3b abb5 8c3c 60d3 323e d30d 5b3d

layer2.0.weight f4 [32, 16, 5, 5]
-0.038930126 0.0051552933 -0.050424963 -0.011109175 -0.00029817264 -0.016267717 0.072741434 -0.04797599
0.031075262 -0.051741876 -0.070958324 0.0025841857 -0.0071403147 -0.06687879 -0.042114604 -0.08949389
0.020306554 -0.07979868 -0.015274412 -0.04305499 0.11231023 0.022359772 -0.0075966734 0.018266222
0.09071154 -0.035652466 -0.08835246 0.065132275 0.16595918 0.0013811202 -0.09252655 -0.0113561535
-0.013130006 0.084336214 0.17536725 0.03217367 -0.025433235 -0.0018027567 -0.053271238 0.03659108
0.062656015 -0.027333945 -0.069403075 0.009449557 0.039509267 -0.028999759 0.015280378 -0.026464041
-0.06834024 -0.04007297 -0.029932033 -0.13376774 -0.05854272 -0.045241214 -0.016208733 0.005015415
-0.03485831 -0.09643399 -0.11538377 -0.00042488746 0.034529682 -0.073761135 -0.0033420662 -0.011768319
0.050085023 0.004532727 -0.051765427 -0.030855384 -0.0734503 -0.04622798 0.08335229 0.1021249
0.0026452253 -0.031221693 -0.017373722 0.06566308 -8.19543e-05 0.0019975612 -0.029569136 0.06352608
0.015708473 -0.018667946 0.049860194 0.053300828 -0.011015882 -0.027786894 0.0232159 0.051628117
-0.021422733 0.057834353 0.00964847 -0.009600693 -0.05468947 -0.025895892 -0.029728143 -0.050951723
-0.015712153 0.037915226 0.09725495 -0.0060729757 0.11568696 0.056722995 -0.034464873 -0.015142524
-0.056953866 -0.04142674 0.053238623 0.022103125 0.046509035 0.033760853 -0.06143604 0.05712318
0.020188937 0.047660112 -0.018240402 0.03651286 -0.05515124 0.010276364 0.012663749 -0.09422378
0.05235482 0.0031940022 0.0818067 -0.06481757 -0.123591125 -0.029909564 0.080064155 0.033735897
0.036100667 -0.03623265 -0.08422855 -0.025389627 0.02637526 0.014866631 -0.05065803 -0.04113879
-0.00060245395 0.030917903 0.083534665 0.08764478 -0.06888864 -0.07630317 -0.04374232 0.002458501
0.030466747 0.11767582 0.087923355 0.056169506 -0.0102197835 0.056962308 0.04885267 -0.033658925
-0.06259494 -0.049419504 -0.12347023 0.065800965 0.018619334 0.021983555 -0.04890218 -0.06960474
-0.04354283 0.10807542 0.031815927 -0.03340149 0.041298047 -0.08913236 0.047965173 -0.013208118
0.0145430155 -0.022699697 -0.03408566 -0.12575145 -0.050694086 -0.074334286 0.0008295774 0.039797626
-0.060139764 -0.0075131175 0.030530792 -0.07391693 0.058334813 -0.04672427 -0.044927206 0.019068347
0.054985322 -0.019548692 0.009018405 0.031817578 0.02628148 0.030722665 0.018510258 -0.031858724
0.05494769 0.030114159 0.017518371 0.0073798643 0.106330626 -0.012012165 -0.012824936 -0.050963227
0.011395449 -0.1208566 -0.041582126 0.055326033 0.0010361787 0.06579382 -0.022915548 -0.038304172
0.0032223808 0.07338249 0.09604688 -0.020197365 -0.07129046 -0.039035052 -0.011535171 0.0019405312
-0.022163171 -0.09249157 -0.06284189 0.07664473 -0.015736956 -0.046205945 0.048055086 0.050483808
0.12864132 -0.00015811092 -0.010333146 -0.09507772 -0.039917998 -0.07750604 0.03523124 0.017139219
-0.0220661 0.010815606 -0.04285271 0.019277412 0.050996102 -0.059153646 0.018563462 -0.09136694
-0.06731336 0.039174747 -0.13594562 -0.03907099 -0.0005802143 -0.039275628 -0.063776754 0.056833103
0.017034562 0.009782516 -0.12512417 -0.0132829845 0.06210627 0.04835966 -0.028986385 -0.08583845
00000000: 3275 1fbd bced a83b 688a 4ebd 4203 36bc
00000010: 0e54 9cb9 e043 85bc 76f9 943d 7982 44bd
00000020: 8c91 fe3c 4aef 53bd 9952 91bd 715b 293b
00000030: 4df9 e9bb bff7 88bd 5d80 2cbd 9348 b7bd
00000040: ee59 a63c 7e6d a3bd 8741 7abc 6e5a 30bd
00000050: e802 e63d d72b b73c 84ed f8bb 0ba3 953c
00000060: f9c6 b93d 5208 12bd 22f2 b4bd 1264 853d
00000070: 34f1 293e b406 b53a 8f7e bdbd 290f 3abc
00000080: 3d1f 57bc 77b8 ac3d 7993 333e 8ac8 033d
00000090: 5c59 d0bc 7a4a ecba f132 5abd 87e0 153d
000000a0: cc51 803d 70eb dfbc 3323 8ebd 51d2 1a3c
000000b0: 78d4 213d e790 edbc 8d5a 7a3c 1ecb d8bc
000000c0: f8f5 8bbd 8e23 24bd 0634 f5bc 69fa 08be
000000d0: 7eca 6fbd da4e 39bd 2dc8 84bc 5a58 a43b
000000e0: 96c7 0ebd 2f7f c5bd 534e ecbd 6ec3 deb9
000000f0: ff6e 0d3d 1410 97bd 9106 5bbb e8cf 40bc
00000100: f425 4d3d 4587 943b fc07 54bd 6ec4 fcbc
00000110: 1c6d 96bd 8d59 3dbd 9bb4 aa3d dc26 d13d
00000120: 845b 2d3b a3c4 ffbc 5653 8ebc 5d7a 863d
00000130: e1de abb8 84e9 023b f93a f2bc f619 823d
00000140: 0eaf 803c 85ed 98bc 343a 4c3d f851 5a3d
00000150: f57b 34bc 57a1 e3bc 452f be3c 0178 533d
00000160: ba7e afbc b7e3 6c3d 9e14 1e3c 3a4c 1dbc
00000170: 1102 60bd 9f23 d4bc 6f88 f3bc c1b2 50bd
00000180: c6b6 80bc ff4c 1b3d 9a2d c73d d0ff c6bb
00000190: 49ed ec3d 5f56 683d 0a2b 0dbd 5918 78bc
000001a0: 7548 69bd 16af 29bd be10 5a3d 9d11 b53c
000001b0: 4280 3e3d d248 0a3d 5ba4 7bbd fff9 693d
000001c0: 4563 a53c 4037 433d e56c 95bc 828e 153d
000001d0: 44e6 61bd 325e 283c 9d7b 4f3c 66f8 c0bd
000001e0: 0272 563d 7752 513b 458a a73d 13bf 84bd
000001f0: 581d fdbd e704 f5bc adf8 a33d a72e 0a3d
00000200: 4bde 133d b068 14bd 0580 acbd e8fd cfbc
00000210: ee10 d83c 2b93 733c cb7e 4fbd 2681 28bd
00000220: 00ee 1dba 8b47 fd3c 3914 ab3d 1b7f b33d
00000230: 7d15 8dbd d644 9cbd 262b 33bd cd1e 213b
00000240: 6695 f93c 0500 f13d 2911 b43d ff11 663d
00000250: e170 27bc 4f51 693d bd19 483d f1dd 09bd
00000260: c731 80bd 1b6c 4abd f6dd fcbd a8c2 863d
00000270: 9387 983c db16 b43c a74d 48bd ee8c 8ebd
00000280: f759 32bd a556 dd3d 6b51 023d 00d0 08bd
00000290: 2428 293d 078b b6bd 2177 443d dd66 58bc
000002a0: d445 6e3c b7f4 b9bc 689d 0bbd fdc4 00be
000002b0: 9aa4 4fbd 933c 98bd ff77 593a d602 233d
000002c0: 1d55 76bd 9930 f6bb b61b fa3c c261 97bd
000002d0: 7cf0 6e3d f361 3fbd 9705 38bd 3935 9c3c
000002e0: 4a38 613d 9424 a0bc efc1 133c 2653 023d
000002f0: 424c d73c 19ae fb3c d3a2 973c 4b7e 02bd
00000300: d410 613d f8b1 f63c b082 8f3c cad2 f13b
00000310: dfc3 d93d acce 44bc ae1f 52bc d1be 50bd
00000320: fab3 3a3c aa83 f7bd 0552 2abd 8d9d 623d
00000330: 63d0 873a e9be 863d 63b9 bbbc d6e4 1cbd
00000340: 942e 533b 8f49 963d 3ab4 c43d f274 a5bc
00000350: bc00 92bd 38e3 1fbd 04fe 3cbc 6c59 fe3a
00000360: 8a8f b5bc 386c bdbd 40b3 80bd eaf7 9c3d
00000370: caea 80bc 7242 3dbd 69d5 443d 1cc8 4e3d
00000380: 8dba 033e 94ca 25b9 5b4c 29bc 1cb8 c2bd
00000390: 0e81 23bd 7dbb 9ebd a24e 103d 8c67 8c3c
000003a0: f7c3 b4bc f133 313c 5386 2fbd aaeb 9d3c
000003b0: 4ae1 503d 184b 72bd 6712 983c 971e bbbd
000003c0: 96db 89bd b375 203d 5435 0bbe e708 20bd
000003d0: 8619 18ba 7bdf 20bd 639d 82bd d4c9 683d
000003e0: 118c 8b3c d946 203c 8d20 00be e0a0 59bc
000003f0: 2563 7e3d c714 463d db74 edbc 12cc afbd

layer2.0.bias f4 [32]
0.008752368 -0.041242618 -0.0024951624 -0.02925525 -0.024671452 0.03876249 0.017404957 0.03311804
-0.047203522 0.01873457 0.033618785 -0.0047496967 0.037619993 0.031761017 -0.008632959 0.044359908
0.047053132 -0.045925565 -0.03088365 -0.0415763 0.015628519 -0.027293984 -0.011062452 -0.027165318
-0.0019993768 -0.029049898 0.014219954 0.029451419 0.011642007 0.024367053 0.058603287 -0.04039105
00000000: 1866 0f3c 05ee 28bd e185 23bb b5a8 efbc
00000010: c91b cabc 6bc5 1e3d d794 8e3c c8a6 073d
00000020: 7b58 41bd 3e79 993c dab3 093d 58a3 9bbb
00000030: 6c17 1a3d d717 023d 4171 0dbc bcb2 353d
00000040: c9ba 403d 721c 3cbd b5ff fcbc e94b 2abd
00000050: 6107 803c a297 dfbc 493f 35bc cd89 debc
00000060: fa07 03bb 0dfa edbc cffa 683c 1a44 f13c
00000070: 1ebe 3e3c 6a9d c73c 000a 703d 1671 25bd

layer2.1.weight f4 [32]
1.1433465 1.130136 1.067498 1.097242 1.01432 1.1115717 1.0753359 1.1187148
1.036545 1.1240482 1.1066692 1.0094497 1.1027564 1.1220138 1.1462244 1.1555289
1.0586228 1.0373209 1.1287544 1.1317652 1.1093765 1.1144896 1.1663721 1.1042705
1.0544125 1.141875 1.1061945 1.1205798 1.0551225 1.0866584 1.0362856 1.0899339
00000000: 2e59 923f 4ca8 903f c6a3 883f 6d72 8c3f
00000010: 3dd5 813f fb47 8e3f 9ba4 893f 0c32 8f3f
00000020: 82ad 843f d0e0 8f3f 56a7 8d3f a635 813f
00000030: 1f27 8d3f 269e 8f3f 7bb7 923f 5fe8 933f
00000040: f480 873f eec6 843f 067b 903f afdd 903f
00000050: 0d00 8e3f 98a7 8e3f ae4b 953f bc58 8d3f
00000060: fdf6 863f f628 923f c897 8d3f 296f 8f3f
00000070: 410e 873f 9f17 8b3f 02a5 843f f482 8b3f

layer2.1.bias f4 [32]
-0.1093317 -0.14382266 -0.13989958 -0.09791623 -0.18382604 -0.1178928 -0.1348054 -0.22171295
-0.12042889 -0.16707848 -0.13452536 -0.18001093 -0.15549079 -0.16719517 -0.14391138 -0.1133487
-0.24630724 -0.1907202 -0.09958016 -0.0655651 -0.13517565 -0.122848846 -0.17042856 -0.10510128
-0.169698 -0.17445351 -0.12792926 -0.11133816 -0.2934156 0.02158628 -0.19052242 -0.10313667
00000000: 4ce9 dfbd 3f46 13be d641 0fbe 4e88 c8bd
00000010: e53c 3cbe c871 f1bd 6d0a 0abe b808 63be
00000020: 6ca3 f6bd 9f16 2bbe 04c1 09be c954 38be
00000030: fa38 1fbe 3635 2bbe 815d 13be 5d23 e8bd
00000040: f737 7cbe 284c 43be aff0 cbbd ff46 86bd
00000050: 7c6b 0abe 2d98 fbbd d384 2ebe 573f d7bd
00000060: 50c5 2dbe f1a3 32be e3ff 02be 4305 e4bd
00000070: 923a 96be b6d5 b03c 4f18 43be 5239 d3bd

layer2.1.running_mean f4 [32]
-0.3996323 -0.18301542 0.30144247 -0.3872455 -0.25921184 -0.3667355 0.13362741 -0.35358036
-2.4734886 0.93255824 -1.6120008 -0.012040034 -0.45336568 -0.42648914 -0.5052295 -0.3240665
0.038604565 0.3963366 -2.6647434 -0.2506839 -0.9520148 0.7448306 0.18614572 -0.56093824
-0.8472972 0.01189182 -1.7142812 0.6665475 -0.98286396 0.44179422 0.33193368 -0.88930565
00000000: 9b9c ccbe 6568 3bbe ab56 9a3e 0b45 c6be
00000010: 6ab7 84be c1c4 bbbe a0d5 083e 7c08 b5be
00000020: a34d 1ec0 23bc 6e3f 0b56 cebf 9043 45bc
00000030: 8c1f e8be c95c dabe b856 01bf 0bec a5be
00000040: d21f 1e3d a1ec ca3e 288b 2ac0 a459 80be
00000050: 3eb7 73bf 38ad 3e3f fc9c 3e3e a699 0fbf
00000060: 78e8 58bf e8d5 423c 916d dbbf dba2 2a3f
00000070: f99c 7bbf da32 e23e 36f3 a93e 89a9 63bf

layer2.1.running_var f4 [32]
1.1668208 0.9958822 1.1479874 1.4725919 1.260814 1.4600023 0.9239923 1.2089338
2.8103693 1.8452952 1.9912182 0.9832684 1.2121698 1.1483765 1.1744853 0.9296849
1.1959331 0.8156423 4.6283393 1.1988802 1.4166929 1.0126148 0.8458274 1.2814533
0.95360553 0.6803407 1.9408796 0.994949 1.6023583 1.4237071 1.6848547 1.1820873
00000000: 625a 953f 23f2 7e3f 40f1 923f e47d bc3f
00000010: 5a62 a13f 5be1 ba3f c28a 6c3f 58be 9a3f
00000020: 17dd 3340 a232 ec3f 3de0 fe3f 7ab7 7b3f
00000030: 6128 9b3f 00fe 923f 8955 963f d4ff 6d3f
00000040: 5614 993f efcd 503f 5b1b 9440 e874 993f
00000050: 3156 b53f 5d9d 813f 2588 583f a906 a43f
00000060: 7e1f 743f cf2a 2e3f be6e f83f fab4 7e3f
00000070: 141a cd3f 093c b63f 52a9 d73f a34e 973f

fc1.weight f4 [120, 512]
0.020105258 0.057465795 0.03872521 -0.035471447 0.03788044 0.0942345 0.13159622 0.005078041
0.09611309 0.074055366 0.03478207 -0.07612705 0.013900821 -0.01179174 -0.016994976 -0.014622232
0.0052078804 -0.014860669 -0.050800554 -0.0036235843 -0.056077436 -0.023560315 0.059186533 -0.049377248
0.029636553 0.0510343 -0.016776795 -0.03369985 0.03764911 0.109283604 0.011915305 0.06956797
0.059920367 0.040296055 -0.02127777 -0.04021326 0.016140545 0.0124363685 -0.019659068 -0.071858846
0.07975832 0.10666313 0.04837789 -0.037294824 0.043463074 -0.031804204 -0.033461105 0.032501843
0.046885967 -0.038738616 -0.09019654 0.016380752 0.076171495 0.059153415 0.039001673 -0.00085550017
0.06425221 -0.027973836 -0.100455076 -0.02002581 -0.05094289 -0.105759606 -0.10251 0.03230898
0.008594702 -0.014933227 -0.10493673 -0.039401565 0.021193737 -0.013437787 0.002442638 -0.044676524
-0.0156827 0.10039631 0.00076713646 -0.059671335 -0.047988392 0.017782355 -0.07093401 0.000830066
0.0793022 0.054210592 -0.06232779 -0.030901391 0.119335026 0.0034926613 0.056802813 0.056460947
-0.044864282 0.044626955 0.06852169 0.017203404 0.022299556 0.026464619 0.06454871 0.10618013
0.012160981 0.022134675 -0.021378202 -0.027282225 0.08452409 -0.047322527 -0.007539614 -0.18870912
0.14111778 -0.054105133 -0.018630529 -0.071429975 0.17142045 -0.033551358 0.055445664 -0.04982183
0.07173304 0.02086256 -0.033964824 -0.021804485 -0.02404461 -0.019229803 -0.05988989 -0.02008259
0.023959648 0.008245138 0.013626734 0.012058789 0.114628725 -0.057598602 -0.017948424 -0.08302636
0.021268072 0.034461632 0.012387874 0.05644745 0.09183928 0.050736573 0.068305016 0.061651554
0.056208834 0.0009796284 0.019433906 0.026211688 0.077997126 0.008209398 0.096999116 0.07709762
0.032878455 0.001801818 0.042270645 0.024690306 -0.04933493 -0.07504709 -0.02222062 0.009991618
-0.03832492 0.014967484 0.07249039 0.061336447 0.052572954 -0.09060824 -0.012079467 0.017114356
-0.059960376 -0.019047644 0.025336893 0.018242221 -0.01713309 -0.032678287 0.02907649 0.031480808
-0.10996481 0.12399505 -0.028387997 0.0023991675 -0.05075164 0.07101258 0.018908 -0.043895267
0.042363025 0.08404262 -0.0047326796 -0.09457465 -0.032200977 0.05081734 -0.010921835 -0.036646806
0.08762709 -0.027776388 0.03648516 -0.07359871 -0.059666887 0.051247165 0.017531492 -0.078978755
0.0024384584 -0.090236485 -0.09638878 -0.1033064 -0.071091354 -0.070304684 -0.050169107 0.012437965
0.02065137 0.0037758304 0.012375331 -0.03736992 0.01775728 -0.0012535141 0.03825642 0.05573045
0.03453375 -0.04420314 -0.052649274 -0.02879593 -0.044776358 0.029363398 -0.012283011 -0.027501324
-0.051676713 -0.039855503 0.026251825 -0.09294394 -0.060306236 -0.007225655 -0.061083484 -0.019745484
0.20148626 0.07031739 0.027146934 -0.080584936 0.04031755 -0.018745864 -0.004230767 0.047452062
-0.07709157 -0.10315863 0.036771454 0.008618198 -0.20015955 -0.059821393 0.010847346 0.07520466
0.13925949 0.03125109 -0.10908414 -0.10672832 0.023340331 0.01581759 0.028442927 -0.096468545
-0.0034352625 0.027162002 0.045285422 -0.114120774 -0.05582399 0.0066013406 0.021963136 -0.21180499
00000000: c8b3 a43c 4161 6b3d 539e 1e3d 824a 11bd
00000010: 8528 1b3d 04fe c03d 29c1 063e b265 a63b
00000020: f1d6 c43d 57aa 973d a577 0e3d 80e8 9bbd
00000030: 45c0 633c 2432 41bc 0c39 8bbc 1692 6fbc
00000040: dea6 aa3b 2a7a 73bc 3e14 50bd a879 6dbb
00000050: 74b1 65bd 9001 c1bc 946d 723d cc3f 4abd
00000060: 5bc8 f23c 5809 513d 7d6f 89bc db08 0abd
00000070: f435 1a3d 15d0 df3d 6938 433c a779 8e3d
00000080: 0f6f 753d 7a0d 253d b84e aebc a9b6 24bd
00000090: 2d39 843c e9c1 4b3c 0e0c a1bc bb2a 93bd
000000a0: 5458 a33d 3372 da3d e527 463d 75c2 18bd
000000b0: 5606 323d 2045 02bd 830e 09bd a720 053d
000000c0: 800b 403d 62ac 1ebd f7b8 b8bd ed30 863c
000000d0: cdff 9b3d da4a 723d 38c0 1f3d a543 60ba
000000e0: aa96 833d 6329 e5bc 64bb cdbd 2b0d a4bc
000000f0: 7ea9 50bd 7e98 d8bd c3f0 d1bd 6c56 043d
00000100: cbd0 0c3c 7eaa 74bc 11e9 d6bd 8963 21bd
00000110: 7d9e ad3c 2a2a 5cbc aa14 203b bbfe 36bd
00000120: 0179 80bc 959c cd3d a819 493a ee69 74bd
00000130: 7a8f 44bd 4dac 913c da45 91bd c998 593a
00000140: 3169 a23d ed0b 5e3d 6d4b 7fbd ea24 fdbc
00000150: ec65 f43d 22e5 643b 11aa 683d 9843 673d
00000160: 9cc3 37bd c1ca 363d 1a55 8c3d 27ee 8c3c
00000170: 8fad b63c 54cc d83c 1d32 843d f874 d93d
00000180: da3e 473c c753 b53c 5721 afbc f97e dfbc
00000190: f71a ad3d 44d5 41bd de0e f7bb f73c 41be
000001a0: 2e81 103e 589d 5dbd 0d9f 98bc e149 92bd
000001b0: d888 2f3e 266d 09bd fe1a 633d fa11 4cbd
000001c0: c6e8 923d f6e7 aa3c b31e 0bbd 529f b2bc
000001d0: 34f9 c4bc d287 9dbc 1a4f 75bd 3e84 a4bc
000001e0: 0647 c43c 9e16 073c aa42 5f3c 3a92 453c
000001f0: 77c2 ea3d 83ec 6bbd 9308 93bc b909 aabd
00000200: 613a ae3c a427 0d3d 82f6 4a3c 7135 673d
00000210: 3c16 bc3d 27d1 4f3d 80e3 8b3d 5786 7c3d
00000220: 3c3b 663d e066 803a db33 9f3c e5b9 d63c
00000230: f5bc 9f3d b680 063c 79a7 c63d 5be5 9d3d
00000240: 8fab 063d fb2a ec3a fc23 2d3d 5343 ca3c
00000250: 6c13 4abd 4ab2 99bd 0508 b6bc e2b3 233c
00000260: 97fa 1cbd 2e3a 753c d775 943d ed3b 7b3d
00000270: bd56 573d d090 b9bd f5e8 45bc 6833 8c3c
00000280: 0399 75bd ce09 9cbc 518f cf3c b670 953c
00000290: b25a 8cbc abd9 05bd d231 ee3c 05f2 003d
000002a0: 3b35 e1bd 1ef1 fd3d f28d e8bc 5a3b 1d3b
000002b0: f4e0 4fbd 0b6f 913d f3e4 9a3c 86cb 33bd
000002c0: da84 2d3d 8a1e ac3d 9814 9bbb 5bb0 c1bd
000002d0: 2ce5 03bd d825 503d 7ff1 32bc f61a 16bd
000002e0: d575 b33d 4f8b e3bc 7771 153d ecba 96bd
000002f0: 4465 74bd 8ce8 513d 349e 8f3c 9dbf a1bd
00000300: 8bce 1f3b e8cd b8bd 7b67 c5bd 4e92 d3bd
00000310: 5898 91bd e7fb 8fbd 1f7e 4dbd 9bc8 4b3c
00000320: 102d a93c ec73 773b e6c1 4a3c 3411 19bd
00000330: b777 913c f44c a4ba c4b2 1c3d 9d45 643d
00000340: 4373 0d3d 5a0e 35bd c4a6 57bd 71e5 ebbc
00000350: 6a67 37bd 828b f03c af3e 49bc 754a e1bc
00000360: f6aa 53bd 863f 23bd 110e d73c 6459 bebd
00000370: ac03 77bd 30c5 ecbb ad32 7abd 48c1 a1bc
00000380: 6a52 4e3e 9002 903d 3f63 de3c b709 a5bd
00000390: 0424 253d ed90 99bc 3fa2 8abb 185d 423d
000003a0: 2fe2 9dbd d544 d3bd aa9d 163d 5833 0d3c
000003b0: a0f6 4cbe 4707 75bd 11b9 313c e704 9a3d
000003c0: 0a9a 0e3e 2501 003d 8167 dfbd 6194 dabd
000003d0: 3934 bf3c e493 813c 2401 e93c 4d91 c5bd
000003e0: 2422 61bb d982 de3c 357d 393d 27b8 e9bd
000003f0: b2a7 64bd 0f50 d83b 09ec b33c 68e3 58be

fc1.bias f4 [120]
0.046453703 0.035853375 -0.049071744 -0.0011786636 0.04610104 -0.016622456 -0.050992064 0.05246788
-0.019190276 -0.056705955 0.0037379237 -0.01651234 0.034423187 0.002758548 0.038694207 0.033719804
-0.0012284326 0.04666038 -0.043338254 0.064487346 -0.022500034 0.01836471 -0.03974289 -0.025657665
0.03282203 0.034000978 -0.019323401 0.011751887 0.07001186 0.0011035481 0.03479034 0.030501027
-0.014038555 -0.0007070029 0.049508948 -0.0047618994 0.09118658 0.010287681 0.017397812 -0.021513281
0.0045088385 0.056484032 0.007806725 0.040302884 -0.04266601 0.004862522 0.061418638 0.002264787
-0.0020499022 -0.006330641 0.029506896 0.03136178 -0.04731971 0.050984513 -0.016175007 -0.040044658
-0.048805986 0.021116726 0.05560268 -0.07225561 -0.04180906 -0.0034580522 0.037324246 -0.043989398
-0.009672867 -0.03239932 0.05716394 -0.029368713 0.046505198 -0.013470529 -0.008831431 0.07767316
0.022745546 -0.0063614445 0.06486149 0.015858099 0.043261833 -0.03379338 0.020845924 0.010161223
0.018074315 0.035432637 -0.018153017 0.076309465 0.010135292 0.032500453 -0.017171318 0.008499613
-0.012539678 0.00030138288 0.015620039 0.02843589 -0.024238693 0.00070186943 0.06516454 -0.033142474
0.0027523092 0.033061955 0.071146265 0.04940181 0.021391556 -0.034473646 0.03268298 -0.031761616
0.060272254 0.031363126 0.054122746 -0.07753701 -0.042809352 0.02067286 -0.0062467465 0.029096074
-0.021683676 0.03178535 -0.059138972 -0.003535104 0.024162024 -0.059186302 -0.038811598 0.061364427
00000000: 3d46 3e3d fdda 123d 74ff 48bd 637d 9aba
00000010: 72d4 3c3d d12b 88bc 0edd 50bd 8fe8 563d
00000020: ed34 9dbc 8144 68bd f4f7 743b e344 87bc
00000030: 54ff 0c3d c1c8 343b d17d 1e3d c71d 0a3d
00000040: 5c03 a1ba f41e 3f3d 7483 31bd f111 843d
00000050: fe51 b8bc 9771 963c 71c9 22bd 0630 d2bc
00000060: 6570 063d 9c44 0b3d 1c4c 9ebc fd8a 403c
00000070: 6162 8f3d eea4 903a 5180 0e3d 4add f93c
00000080: f801 66bc 2956 39ba e5c9 4a3d b509 9cbb
00000090: 08c0 ba3d a98d 283c db85 8e3c 9f3c b0bc
000000a0: e1be 933b cd5b 673d 8ecf ff3b a314 253d
000000b0: 8ec2 2ebd ca55 9f3b 1c92 7b3d d26c 143b
000000c0: a757 06bb 4471 cfbb 72b8 f13c 3675 003d
000000d0: 50d2 41bd 23d5 503d 7381 84bc de05 24bd
000000e0: c9e8 47bd fcfc ac3c a3bf 633d c0fa 93bd
000000f0: fa3f 2bbd 7da0 62bb 4fe1 183d 3a2e 34bd
00000100: f27a 1ebc 26b5 04bd bc24 6a3d a896 f0bc
00000110: 3c7c 3e3d 7eb3 5cbc b5b1 10bc 1b13 9f3d
00000120: de54 ba3c aa73 d0bb 1ad6 843d d8e8 813c
00000130: 5233 313d ed6a 0abd 12c5 aa3c 427b 263c
00000140: 9610 943c d021 113d a3b5 94bc 2348 9c3d
00000150: 7f0e 263c 321f 053d ddaa 8cbc f641 0b3c
00000160: 3973 4dbc ed02 9e39 31eb 7f3c 62f2 e83c
00000170: 3990 c6bc a9fd 373a fd74 853d 67c0 07bd
00000180: 1660 343b f96b 073d 22b5 913d 8d59 4a3d
00000190: 583d af3c 3d34 0dbd 97de 053d 7818 02bd
000001a0: 0ae0 763d 9f76 003d d0af 5d3d b9cb 9ebd
000001b0: dc58 2fbd 215a a93c 82b1 ccbb e45a ee3c
000001c0: f7a1 b1bc 5b31 023d b53b 72bd 34ad 67bb
000001d0: 70ef c53c 566d 72bd e9f8 1ebd 4459 7b3d

fc2.weight f4 [84, 120]
-0.053793352 -0.028182365 0.020434013 0.05926114 -0.00610908 0.11449051 -0.0675503 -0.18578687
0.110526435 -0.013375901 0.057083566 0.02931022 0.032116443 0.13890375 -0.01722558 0.1245695
0.11275196 0.013626298 -0.044712484 -0.047175594 0.029697318 0.14942865 -0.08510122 -0.128079
-0.06230123 0.045286175 0.057929974 0.013144644 0.0069537293 0.10325968 0.11999611 0.050495483
-0.0516729 0.011557706 -0.07781361 -0.034923717 -0.038540605 -0.031871166 0.09307036 0.0041002664
-0.07414757 -0.017878784 -0.0712187 -0.027982786 -0.04410794 -0.010728421 -0.011182688 -0.080645576
0.00461453 -0.045365885 -0.08231905 0.098109126 0.055175763 0.0062664263 -0.124995515 0.1057346
0.020678611 -0.013919981 -0.08932079 0.036058743 0.031061051 -0.053675786 -0.0034347093 -0.016810987
-0.11456705 0.001081204 0.032781307 -0.13134392 -0.020165563 0.17663595 -0.03131727 0.068138115
-0.046718106 -0.039944593 0.041723806 0.0620595 0.04550254 0.004719519 0.0019530434 -0.04021355
-0.06225776 0.10898141 0.08646901 0.12194427 -0.06877137 -0.023324586 -0.061672606 0.0569614
-0.059146862 -0.11161639 0.018263558 0.059560318 0.06337678 -0.050381847 0.042066958 0.07852132
-0.12537546 -0.07685527 0.048854362 -0.053791996 0.02055176 -0.04346313 -0.053635877 0.012770995
-0.06584704 -0.00064001296 0.013031105 0.060236763 0.04599476 0.038000558 -0.03947596 -0.01187407
0.040233143 -0.022362575 0.10615415 0.032411028 -0.13908736 -0.023319466 0.025799505 -0.044292927
-0.06537402 -0.05035009 0.009089141 0.01860821 -0.11911598 -0.015748003 0.041274503 0.10932722
0.041291 0.032776833 -0.033872213 0.031678572 0.08308703 0.0011491351 -0.1910163 0.042177103
0.037930492 0.080725886 -0.017360799 0.15713243 -0.004781895 0.15818715 -0.11607262 -0.018158283
-0.09090015 0.036346667 0.06769367 -0.028650854 -0.019458216 -0.12675628 -0.058287326 -0.005407429
-0.10485923 -0.009489396 0.053230293 -0.039329555 -0.0330447 0.11314534 -0.0068044364 -0.06681106
0.049823344 0.03363117 -0.0650521 0.10875686 0.046125136 0.104206845 0.025610505 0.07724757
-0.07017381 0.046143696 -0.029026419 0.04123022 0.068587676 0.011940775 -0.09880436 -0.016125826
0.047173064 -0.05705686 -0.028042307 -0.06482627 -0.0480921 -0.06400964 -0.09557372 0.0705568
-0.022614634 -0.029889047 -0.08293351 0.126801 0.059524465 0.07948273 0.01563558 -0.11742606
0.04334548 0.057279907 0.032615628 -0.087478966 0.079519704 -0.05012984 -0.055656396 -0.07206685
-0.054839954 0.111667685 0.043942835 0.10054695 0.08473106 0.08866109 -0.09928033 -0.019432373
-0.07095151 -0.15056394 0.083270565 -0.07628773 -0.0109628355 0.07479655 -0.06831528 -0.03915008
0.07998648 0.06262387 0.092421606 0.0017527681 0.14070624 0.12391558 0.054569345 -0.075494975
-0.06600532 0.037163414 0.059506986 0.012692717 -0.016233128 -0.07131755 0.006333043 -0.08287868
-0.05495921 0.08370005 -0.014905167 -0.06810811 0.037653122 -0.009947368 -0.029259147 0.047760468
-0.007000792 -0.0020619447 -0.07060504 0.07281925 -0.12242184 0.03367991 0.07610048 0.14933412
0.14263058 0.02670036 -0.05532486 -0.024645032 0.10553278 0.08658188 -0.0182333 0.04286937
00000000: 6b56 5cbd b4de e6bc 3b65 a73c cfbb 723d
00000010: ad2e c8bb 007a ea3d d057 8abd ea3e 3ebe
00000020: af5b e23d 9826 5bbc 75d0 693d fd1b f03c
00000030: 888c 033d c93c 0e3e a91c 8dbc 4b1e ff3d
00000040: 80ea e63d d640 5f3c 7024 37bd 323b 41bd
00000050: ca47 f33c d303 193e 8c49 aebd 2427 03be
00000060: 932f 7fbd ff7d 393d fb47 6d3d a25c 573c
00000070: 1cdc e33b d079 d33d 85c0 f53d 5ad4 4e3d
00000080: f6a6 53bd 885c 3d3c be5c 9fbd 2c0c 0fbd
00000090: c1dc 1dbd 578b 02bd ac9b be3d 875b 863b
000000a0: aeda 97bd 8776 92bc 1cdb 91bd 283c e5bc
000000b0: 87aa 34bd 42c6 2fbc 9837 37bc 8229 a5bd
000000c0: 7c35 973b 94d1 39bd e496 a8bd 70ed c83d
000000d0: fbff 613d 9856 cd3b a6fd ffbd 628b d83d
000000e0: 3166 a93c a210 64bc d1ed b6bd 55b2 133d
000000f0: bf73 fe3c 24db 5bbd dc18 61bb 32b7 89bc
00000100: 21a2 eabd 30b7 8d3a b145 063d 057f 06be
00000110: 4032 a5bc 0ee0 343e 8a46 00bd ff8b 8b3d
00000120: 7c5b 3fbd f19c 23bd 95e6 2a3d 1a32 7e3d
00000130: df60 3a3d 32a6 9a3b 43fd ff3a f7b6 24bd
00000140: fe01 7fbd a531 df3d aa16 b13d ebbd f93d
00000150: 01d8 8cbd 3413 bfbc 6a9c 7cbd 5b50 693d
00000160: fb43 72bd 2297 e4bd 759d 953c 85f5 733d
00000170: afcb 813d 325d 4ebd 674e 2c3d c9cf a03d
00000180: 6d62 00be 4c66 9dbd 831b 483d ff54 5cbd
00000190: 2a5c a83c 6506 32bd 4bb1 5bbd 6f3d 513c
000001a0: d0da 86bd 8bc6 27ba 6a80 553c d3ba 763d
000001b0: 0065 3c3d 79a6 1b3d 8bb1 21bd 768b 42bc
000001c0: 82cb 243d b831 b7bc 5967 d93d 6dc1 043d
000001d0: eb6c 0ebe 7708 bfbc 7c59 d33c 806c 35bd
000001e0: d0e2 85bd e53b 4ebd 9fea 143c 3f70 983c
000001f0: 14f3 f3bd f501 81bc 740f 293d f3e6 df3d
00000200: c020 293d 0041 063d 97bd 0abd 64c1 013d
00000210: 8829 aa3d 939e 963a c799 43be e6c1 2c3d
00000220: 015d 1b3d 9d53 a53d 3c38 8ebc 53e7 203e
00000230: 71b1 9cbb d0fb 213e 7bb7 edbd aec0 94bc
00000240: dc29 babd 3ee0 143d fba2 8a3d 32b5 eabc
00000250: d666 9fbc 66cc 01be b1be 6ebd cd30 b1bb
00000260: 70c0 d6bd 6979 1bbc 0208 5a3d 0718 21bd
00000270: e159 07bd beb8 e73d c0f7 debb 3dd4 88bd
00000280: 9013 4c3d d6c0 093d 093a 85bd ebbb de3d
00000290: b6ed 3c3d 666a d53d 1fcd d13c f933 9e3d
000002a0: 49b7 8fbd 2c01 3d3d d0c8 edbc 05e1 283d
000002b0: b277 8c3d 3ea3 433c f159 cabd 4f1a 84bc
000002c0: 8b38 413d 74b4 69bd fbb8 e5bc a3c3 84bd
000002d0: 39fc 44bd 7c17 83bd 28bc c3bd 1580 903d
000002e0: 5342 b9bc e0d9 f4bc 0bd9 a9bd 1fd8 013e
000002f0: edcf 733d d7c7 a23d 3016 803c 137d f0bd
00000300: 088b 313d 569e 6a3d f797 053d 2c28 b3bd
00000310: 3adb a23d f254 4dbd f6f7 63bd c997 93bd
00000320: dc9f 60bd 07b2 e43d 67fd 333d 8feb cd3d
00000330: 7a87 ad3d f293 b53d 7c53 cbbd a430 9fbc
00000340: 064f 91bd 6f2d 1abe c289 aa3d be3c 9cbd
00000350: 779d 33bc ef2e 993d e2e8 8bbd d65b 20bd
00000360: f4cf a33d f240 803d 8a47 bd3d 23bd e53a
00000370: 4c15 103e 74c7 fd3d 1b84 5f3d 1c9d 9abd
00000380: cc2d 87bd aa38 183d 99bd 733d 1df5 4f3c
00000390: 56fb 84bc f00e 92bd 6a85 cf3b 4cbc a9bd
000003a0: e91c 61bd ef6a ab3d cd34 74bc 447c 8bbd
000003b0: 293a 1a3d 49fa 22bc e1b0 efbc 7ba0 433d
000003c0: e666 e5bb b121 07bb 6099 90bd 4222 953d
000003d0: 4db8 fabd f2f3 093d 92da 9b3d 0beb 183e
000003e0: c00d 123e b7ba da3c 529c 62bd 61e4 c9bc
000003f0: 9221 d83d d751 b13d 005e 95bc cb97 2f3d

fc2.bias f4 [84]
0.0099099865 -0.000673049 0.09274051 0.02558696 0.10006718 0.13554469 0.037325352 -0.056011718
0.05827714 -0.049166773 0.017812595 0.0034350676 -0.03152743 -0.055944964 -0.018055793 -0.04316582
0.043764547 -0.023490055 0.04134366 0.05089763 0.06355053 0.04567031 -0.033777807 -0.05053923
0.14596431 0.030943219 0.04777219 0.085492864 -0.004552821 0.1434626 0.10022243 0.049975943
-0.014427472 0.07344689 0.09631802 0.08258946 0.037223462 0.02118138 0.07686344 0.021988608
-0.021990718 0.07818054 0.10068079 -0.06004201 0.0071936552 0.07517206 -0.04093518 -0.08260485
0.054272655 0.05608307 -0.10198017 0.0037431319 0.014347052 0.07100407 -0.09070991 -0.07131531
0.0029978028 0.020982489 -0.009398775 -0.05341958 0.059318524 0.05749546 0.08832333 0.0994522
0.011726883 0.08945904 -0.0713138 0.030537944 -0.1275257 0.110658735 0.021745156 -0.093938395
0.026673226 0.054508783 0.05447633 0.080936246 -0.04808925 0.08365809 -0.024852166 -0.003007808
0.08532613 0.033477515 -0.03167662 -0.05047882
00000000: 7f5d 223c 8e6f 30ba bdee bd3d bf9b d13c
00000010: 06f0 cc3d 3acc 0a3e 78e2 183d 8b6c 65bd
00000020: 03b4 6e3d 1963 49bd b8eb 913c df1e 613b
00000030: e822 01bd 8c26 65bd bee9 93bc a5ce 30bd
00000040: 7442 333d 376e c0bc f857 293d 097a 503d
00000050: c826 823d ca10 3b3d 995a 0abd 3902 4fbd
00000060: ab77 153e a27c fd3c c6ac 433d e216 af3d
00000070: d52f 95bb dce7 123e 6b41 cd3d 93b3 4c3d
00000080: 3461 6cbc 536b 963d 6242 c53d aa24 a93d
00000090: a177 183d 9384 ad3c 946a 9d3d 7421 b43c
000000a0: e125 b4bc 1e1d a03d bb31 ce3d 9cee 75bd
000000b0: c1b8 eb3b cff3 993d a6ab 27bd bb2c a9bd
000000c0: 014d 5e3d 5cb7 653d fbda d0bd 554f 753b
000000d0: e60f 6b3c 956a 913d 1ec6 b9bd c30d 92bd
000000e0: c976 443b 78e3 ab3c 52fd 19bc 7dce 5abd
000000f0: fbf7 723d 5c80 6b3d dde2 b43d 98ad cb3d
00000100: 1d22 403c 4d36 b73d f80c 92bd b62a fa3c
00000110: 1996 02be 0ca1 e23d e622 b23c c662 c0bd
00000120: cf81 da3c 9a44 5f3d 9222 5f3d e7c1 a53d
00000130: 3cf9 44bd ef54 ab3d c596 cbbc a51e 45bb
00000140: 77bf ae3d b81f 093d 58bf 01bd e1c2 4ebd

fc3.weight f4 [10, 84]
-0.042590626 -0.10669835 0.12304024 -0.20746139 -0.012449444 -0.003433916 0.131358 -0.021625258
0.061070614 -0.06883272 -0.13403708 -0.017348016 -0.13797867 -0.034185324 0.037719805 -0.24204002
-0.08020423 -0.023066122 0.083289966 0.026796471 -0.029626308 0.094576724 -0.07381532 -0.0048802053
-0.115424685 0.057331055 0.07756234 -0.15140225 -0.04179092 -0.16843334 -0.11608524 -0.13126361
0.043639112 -0.11377448 -0.011976762 0.086861454 0.05852835 0.15436618 -0.044154868 -0.027132304
-0.046874106 0.080570966 0.07335268 0.12535112 0.04901087 0.024915077 -0.124535225 0.028282354
0.04957786 -0.006464038 -0.052064132 -0.0834828 -0.17896396 -0.24507847 -0.05593614 -0.021361332
-0.036569934 -0.15497011 -0.025450626 0.07508011 -0.1633143 -0.11968479 0.120364435 0.0013846104
0.018913189 -0.13789913 0.085309386 -0.047380734 0.05680608 -0.08436935 0.04253022 -0.016003149
0.07190739 0.15482593 0.09827424 -0.08355201 0.067103386 0.013616062 -0.21667251 -0.054252144
0.08151043 0.0239754 0.02771476 0.020385196 0.10796918 -0.10170662 0.030292211 -0.026152242
-0.024548452 0.074630454 -0.1909297 -0.11429779 0.013575125 -0.006510851 -0.11182293 0.1486974
-0.15381196 -0.110577315 -0.210282 0.09276397 0.08948427 0.113502435 0.07688141 -0.0484692
0.07170918 -0.11307193 0.07925624 0.09075465 -0.0131325815 -0.068938754 0.08918185 0.021844681
-0.15690047 0.13435367 0.1228598 -0.10413826 -0.25942537 0.08168296 0.06024959 -0.16836174
-0.1567149 0.05667485 -0.19077192 -0.20041756 -0.05880273 0.16062857 -0.097047836 -0.014953921
0.066771485 0.10069496 -0.09554876 -0.18782529 -0.15214781 0.1370273 -0.027575191 -0.17908427
-0.035480637 -0.19460364 -0.10449125 -0.0085277865 -0.11915021 -0.029134259 -0.22969177 -0.0068332823
-0.044107698 0.15451713 0.06673582 -0.13702422 0.22165017 -0.10605906 0.1012014 0.10446941
-0.12351389 -0.1999881 -0.2626117 0.02101066 0.10552642 -0.09388511 -0.21356308 0.01394829
-0.053169444 -0.23622292 0.038429987 -0.034749374 0.05536242 -0.08688366 -0.12771717 0.14129233
-0.028815169 0.095438324 0.051000427 -0.0375255 -0.028098075 0.012839214 -0.049948476 -0.16570489
-0.1231364 0.017271284 0.08451069 -0.12911777 0.04229244 0.0815045 -0.044699624 -0.11837388
-0.18016429 -0.07610734 -0.00077452185 -0.048130967 0.13060823 0.096731514 0.09550933 0.0161654
-0.13811974 0.03164292 -0.14976321 0.10689768 0.13040693 -0.09676367 0.061534997 0.017894119
0.06429917 -0.09323175 0.07135316 0.08150313 -0.035443954 -0.038348377 -0.05489193 0.10156423
-0.0397357 0.10712373 0.032027476 0.070864744 0.16724789 -0.15356179 -0.03927844 -0.0064425715
-0.026850197 -0.09426829 0.008008105 0.006841432 0.10657832 -0.2022434 -0.112916395 0.107429676
-0.07322902 0.022703191 0.056263853 -0.08696388 -0.09200193 -0.06160876 0.010320002 0.026149929
0.124887936 0.039143316 0.07036554 0.07207214 0.0846421 -0.0572456 0.08311952 0.013367914
-0.18367358 0.0053284913 0.08142494 0.079305075 -0.018056577 -0.16457903 -0.18098854 0.0683101
-0.17965922 -0.17561643 -0.05823701 -0.104887255 0.05668384 -0.11350035 -0.07592217 -0.2654087
00000000: 8273 2ebd aa84 dabd 85fc fb3d c270 54be
00000010: c1f8 4bbc 8d0b 61bb b682 063e 7427 b1bc
00000020: 2e25 7a3d 2bf8 8cbd 0441 09be 6d1d 8ebc
00000030: 484a 0dbe e905 0cbd 1580 1a3d 57d9 77be
00000040: 1e42 a4bd 2af5 bcbc ee93 aa3d 4684 db3c
00000050: dfb2 f2bc 71b1 c13d 7d2c 97bd 21ea 9fbb
00000060: c763 ecbd f8d3 6a3d 01d9 9e3d 3109 1bbe
00000070: f52c 2bbd ca79 2cbe 19be edbd f869 06be
00000080: edbe 323d 9802 e9bd 2e3a 44bc 6be4 b13d
00000090: 6cbb 6f3d 2b12 1e3e bcdb 34bd 9144 debc
000000a0: 10ff 3fbd 6402 a53d ee39 963d 0b5c 003e
000000b0: 9fbf 483d b41a cc3c 530c ffbd 65b0 e73c
000000c0: 2712 4b3d 48d0 d3bb 3341 55bd 08f9 aabd
000000d0: 5442 37be daf5 7abe 4b1d 65bd f6fd aebc
000000e0: 5bca 15bd 7cb0 1ebe d57d d0bc 9ac3 993d
000000f0: dd3b 27be 4d1d f5bd a181 f63d d17b b53a
00000100: d5ef 9a3c 6e35 0dbe b0b6 ae3d 4d12 42bd
00000110: 7ead 683d d6c9 acbd 2b34 2e3d 0919 83bc
00000120: 2f44 933d b08a 1e3e 0144 c93d 511d abbd
00000130: 806d 893d e715 5f3c 66df 5dbe 7f37 5ebd
00000140: f1ee a63d 0f68 c43c 100a e33c dbfe a63c
00000150: f21e dd3d 8f4b d0bd 5f27 f83c 3a3d d6bc
00000160: d619 c9bc dad7 983d 1383 43be f614 eabd
00000170: 336a 5e3c fa58 d5bb 6c03 e5bd 2244 183e
00000180: e280 1dbe 5c76 e2bd 2a54 57be 09fb bd3d
00000190: 8743 b73d f773 e83d 0074 9d3d a487 46bd
000001a0: 43dc 923d 4292 e7bd 1851 a23d 93dd b93d
000001b0: 0a2a 57bc c32f 8dbd f9a4 b63d 9ef3 b23c
000001c0: 84aa 20be 0294 093e eb9d fb3d 7146 d5bd
000001d0: 67d3 84be 6549 a73d 46c8 763d 0567 2cbe
000001e0: df79 20be e323 683d b759 43be 433a 4dbe
000001f0: 22db 70bd d17b 243e 04c1 c6bd 4a01 75bc
00000200: 7dbf 883d 2939 ce3d 11af c3bd 4655 40be
00000210: a3cc 1bbe e250 0c3e 5ee5 e1bc de61 37be
00000220: 2554 11bd 2d46 47be 82ff d5bd 21b8 0bbc
00000230: 0605 f4bd f8aa eebc 5234 6bbe bae9 dfbb
00000240: 46aa 34bd bd39 1e3e caac 883d 1450 0cbe
00000250: 43f8 623e 7e35 d9bd ae42 cf3d 0ff4 d53d
00000260: daf4 fcbd aec9 4cbe 0a75 86be 8c1e ac3c
00000270: 3c1e d83d d646 c0bd 48b0 5abe 5e87 643c
00000280: 34c8 59bd 6ce4 71be c368 1d3d 5c55 0ebd
00000290: b4c3 623d 0ff0 b1bd 4ac8 02be f0ae 103e
000002a0: ca0d ecbc 2b75 c33d d3e5 503d 57b4 19bd
000002b0: ef2d e6bc 915b 523c c696 4cbd 8bae 29be
000002c0: f02e fcbd 827c 8d3c f113 ad3d 7337 04be
000002d0: d63a 2d3d d5eb a63d f416 37bd 016e f2bd
000002e0: fd7c 38be 2ade 9bbd 4809 4bba fa24 45bd
000002f0: 2abe 053e 2c1b c63d 659a c33d 4d6d 843c
00000300: 436f 0dbe 029c 013d 875b 19be 2ced da3d
00000310: 6589 053e 082c c6bd 1f0c 7c3d b096 923c
00000320: 49af 833d 4af0 bebd 9b21 923d 1deb a63d
00000330: ae2d 11bd 3013 1dbd 5cd6 60bd e800 d03d
00000340: e7c1 22bd b063 db3d 3e2f 033d 8921 913d
00000350: 0843 2b3e 4d3f 1dbe 6ee2 20bd 351c d3bb
00000360: f2f4 dbbc bc0f c1bd 6d34 033c 172e e03b
00000370: bc45 da3d e518 4fbe b640 e7bd 1704 dc3d
00000380: 19f9 95bd 0bfc b93c ed74 663d 1e1a b2bd
00000390: 826b bcbd 7859 7cbd 3a15 293c 6038 d63c
000003a0: 3fc5 ff3d be54 203d cf1b 903d 8f9a 933d
000003b0: d658 ad3d 5d7a 6abd 913a aa3d 1805 5b3c
000003c0: ed14 3cbe a09a ae3b 1ec2 a63d b36a a23d
000003d0: 63eb 93bc 6887 28be 0f55 39be 2ae6 8b3d
000003e0: 96f8 37be cbd4 33be ee89 6ebd 21cf d6bd
000003f0: 502d 683d df72 e8bd 157d 9bbd a6e3 87be

fc3.bias f4 [10]
-0.07039722 0.0552418 0.07604389 -0.07482508 -0.05707078 -0.043388505 0.11286928 0.11394866
0.012568143 -0.08034605
00000000: 6b2c 90bd 3a45 623d e6bc 9b3d e43d 99bd
00000010: 0dc3 69bd 25b8 31bd 0228 e73d ea5d e93d
00000020: 9dea 4d3c 788c a4bd
